newExperimentResults/dynamic_cell_fire_rate/mymodel.pth (torch, 34964 bytes, 3 tensors)

fc0.weight f4 [128, 48]
0	0xbe0a7088	-0.1351949
1	0x3f0de2e7	0.5542435
2	0x3ea6a1db	0.3254536
3	0xbea4ac11	-0.32162526
4	0xbda050af	-0.07827889
5	0xbdaf3e6c	-0.08556828
6	0x3d41681a	0.04721842
7	0xbd1c8805	-0.038215656
8	0xbcea3da2	-0.028593842
9	0xbe076cb8	-0.13225067
10	0xbdaac9ef	-0.08339297
11	0x3d681a9e	0.05666601
12	0xbda0644e	-0.078316316
13	0x3e24e5ee	0.16103336
14	0xbc059df4	-0.008155335
15	0x3dc9ed4f	0.09859716
16	0xbd913830	-0.07090795
17	0xbea81033	-0.3282486
18	0xbc3ad482	-0.011403205
19	0x3dbba38b	0.09162053
20	0x3cda6283	0.026658302
21	0x3d55f344	0.05223395
22	0xbe009fcb	-0.12560956
23	0x3d8e6f46	0.069548175
24	0x3e09fe6a	0.13475958
25	0x3db4939d	0.088172175
26	0xbd40015b	-0.046876293
27	0x3c8ca7cf	0.017169861
28	0x3d0416ab	0.03224818
29	0x3b54c50f	0.003246609
30	0x3dc3355a	0.095316604
31	0x3cbc7e01	0.023009302
32	0xbdd91301	-0.10599328
33	0xbeb5a70f	-0.35479018
34	0xbd329ff3	-0.04360957
35	0xbdcf042e	-0.10108219
36	0x3e436564	0.19081646
37	0x3e8192f1	0.2530742
38	0x3c5450aa	0.012958685
39	0xbdab8fa7	-0.08377009
40	0xbd5a3297	-0.053270902
41	0x3d74ce16	0.05976685
42	0xbddad3d8	-0.10684937
43	0x3e00372b	0.12521045
44	0xbe0c24e6	-0.1368595
45	0x3db9f51c	0.09079954
46	0xbdf4d331	-0.11954344
47	0x3e0915f7	0.13387285
48	0x3ded7fdd	0.115966536
49	0xbe1eaefd	-0.1549644
50	0xbd121a0b	-0.035669368
51	0xbe792bfa	-0.24333182
52	0xbe2b37b1	-0.16720463
53	0xbd4dc0ac	-0.050232574
54	0x3d368b4b	0.044566434
55	0xbcd4c767	-0.025973989
56	0xbe239c2e	-0.15977547
57	0xbac77588	-0.0015217522
58	0x3da37b8b	0.07982548
59	0xbdced9c2	-0.10100128
60	0x3df2ebfb	0.11861416
61	0x3d9d1975	0.07670871
62	0xbe034a4d	-0.12821312
63	0xbd715d68	-0.05892697
64	0xbe93cef6	-0.28868836
65	0x3e39ac0d	0.18132038
66	0xbed2abf5	-0.41146818
67	0xbcc7fd9c	-0.024412923
68	0x3ed57feb	0.41699156
69	0x3e910d2f	0.2833037
70	0x3e32ad6e	0.1744897
71	0xbe1bdd77	-0.15221201
72	0x3eaab4a7	0.33340952
73	0x3c2a7b66	0.010405397
74	0x3ef71413	0.48257503
75	0x3eaff2de	0.3436498
76	0x3e3fac66	0.18718109
77	0xbb225501	-0.0024769905
78	0x3eaf8de9	0.34287956
79	0xbe64efed	-0.2235715
80	0xbd86ba27	-0.065784745
81	0x3bb5b2a2	0.0055449763
82	0x3e4ea298	0.20179212
83	0xbde272ea	-0.11057074
84	0xbd72529f	-0.059160825
85	0x3e03c8dd	0.12869592
86	0x3da017ed	0.078170635
87	0xbdfbc74b	-0.122938715
88	0x3dd9c5c8	0.10633427
89	0xbe0a0b02	-0.13480762
90	0x3dba4548	0.090952456
91	0x3dc8f471	0.098122485
92	0xbda7efe4	-0.082000524
93	0x3da2f822	0.07957484
94	0x3e02a6ff	0.12759016
95	0xbec73dfe	-0.38914484
96	0xbc342964	-0.010996196
97	0xbdbd697f	-0.092486374
98	0xbd1ceb96	-0.03831061
99	0xbe2bff44	-0.16796595
100	0x3d9171b3	0.071017645
101	0x3d1e5e94	0.038664415
102	0xbe4f0266	-0.20215759
103	0xbd053a47	-0.03252628
104	0xbe54dc38	-0.20787132
105	0x3e129a4f	0.14316677
106	0xbe1c511d	-0.15265317
107	0xbe08041d	-0.13282819
108	0xbcb6f701	-0.022334578
109	0xbcd1e59d	-0.025622183
110	0xbe3e77ad	-0.1860034
111	0xbd7ded87	-0.0619941
112	0xbde579f2	-0.112049
113	0x3c826604	0.015917785
114	0xbe53fa0e	-0.20700857
115	0xbdf763e1	-0.12079597
116	0xbd2b9a61	-0.041895274
117	0x3bef8e79	0.0073106852
118	0xbe661719	-0.22469749
119	0xbe39fadb	-0.181621
120	0xbf03a39f	-0.5142154
121	0x3ef46e2f	0.47740313
122	0xbe67aa52	-0.22623566
123	0xbf0822fc	-0.5317838
124	0xbb0c7c3f	-0.002143636
125	0xbe3911d5	-0.18073209
126	0x3b91c6f2	0.004448765
127	0x3e5a1b18	0.21299398
128	0x3e180cf0	0.14848685
129	0x3d58bcb8	0.05291435
130	0x3e995880	0.29950333
131	0x3e53a930	0.20670009
132	0x3cb701dc	0.022339754
133	0xbde50581	-0.111826904
134	0x3ece46ba	0.40288335
135	0x3dc0967f	0.09403705
136	0xbe8bbb13	-0.27291164
137	0xbe644a51	-0.22293974
138	0x3e6ba716	0.23012957
139	0x3d94c39e	0.072638735
140	0x3dbd8eca	0.092557505
141	0xbe6293b1	-0.22126652
142	0xbe3f9822	-0.18710378
143	0x3ed04d96	0.40684193
144	0xbe10b75e	-0.14132449
145	0xbd060252	-0.032717057
146	0xbe6c4cae	-0.23076126
147	0xbd60c5b6	-0.05487605
148	0xbea973b4	-0.33096087
149	0xbd81441d	-0.0631182
150	0x3c4eb43b	0.0126162125
151	0x3d877da4	0.06615761
152	0xbd9ea01f	-0.077453844
153	0x3e3366d4	0.17519695
154	0x3d789bb7	0.060695376
155	0x3cabdbb1	0.02097878
156	0x3e9ace25	0.302354
157	0xbe6bca29	-0.23026337
158	0xbe32d294	-0.17463142
159	0xbe797ea9	-0.24364723
160	0xbdcd1549	-0.100138254
161	0x3e5d4395	0.21607812
162	0x3e3332c3	0.17499833
163	0x3e48eae5	0.19620855
164	0xbe2d5f10	-0.16930795
165	0xbdabe39e	-0.08393024
166	0xbefeb155	-0.4974467
167	0xbbf05cef	-0.0073352973
168	0x3d41d97b	0.047326546
169	0xbed01579	-0.40641382
170	0x3e222729	0.15835251
171	0xbe80b31a	-0.25136644
172	0xbdf95db4	-0.121760756
173	0x3e324e21	0.17412616
174	0x3eb63bb0	0.35592413
175	0xbe58b62c	-0.21163243
176	0x3d849ed1	0.06475604
177	0x3da263fb	0.07929226
178	0x3c95bd4d	0.018278742
179	0x3d3fb548	0.046803743
180	0xbe3f5ec2	-0.18688491
181	0x3daf5af7	0.08562272
182	0xbde9b11d	-0.11410735
183	0x3e07e913	0.13272505
184	0xbe5696bd	-0.2095594
185	0xbe19dfb1	-0.15026738
186	0x3d69859d	0.05701219
187	0xbd827a73	-0.063710116
188	0x3e1782ab	0.1479594
189	0x3ef2a42f	0.47390887
190	0x3e89c5d0	0.2690873
191	0x3d7bb379	0.061450455
192	0xbde4db8a	-0.11174686
193	0x3d1ffdce	0.039060406
194	0x3d77ef25	0.0605308
195	0xbd9de457	-0.07709568
196	0x3de9fa40	0.114246845
197	0xbe82aab6	-0.25520867
198	0xbdbca592	-0.092112675
199	0x3ccdca9a	0.025121022
200	0xbd3f83fe	-0.046756737
201	0x3dc7e610	0.09760678
202	0x3d9de917	0.07710474
203	0xbe644f08	-0.22295773
204	0xbdb29a85	-0.087208785
205	0x3e47474f	0.19460796
206	0xbe50d605	-0.20394142
207	0x3e29e063	0.16589503
208	0x3e4b94c8	0.19880974
209	0x3d61f124	0.05516161
210	0x3da6960f	0.0813409
211	0xbd4a92c5	-0.049456377
212	0xbeaf4364	-0.34231102
213	0x3d5fb9f0	0.054620683
214	0x3e0ce52f	0.13759302
215	0x3e81df00	0.25365448
216	0xbe127a99	-0.1430458
217	0xbe069874	-0.13144094
218	0x3d6ac630	0.057317913
219	0xbe05e886	-0.13076982
220	0x3e839f11	0.25707296
221	0x3e8f8f4e	0.2803902
222	0x3d076977	0.033059563
223	0x3cd18a44	0.025578626
224	0x3e1f5c84	0.15562636
225	0xbe3d6495	-0.184954
226	0xbb1b3868	-0.0023684744
227	0xbdf29e3c	-0.11846587
228	0x3e83d5b9	0.25748995
229	0x3e5e0ff2	0.2168577
230	0x3ea76e6d	0.32701436
231	0x3e0dcba0	0.13847208
232	0x3db8be98	0.09020728
233	0x3df20d6a	0.11818965
234	0x3df5b8fb	0.11998173
235	0x3e6b9b0e	0.23008367
236	0x3de46522	0.11152102
237	0xbd93b88f	-0.07212936
238	0xbe1f2ecd	-0.15545197
239	0x3e3d2aff	0.18473433
240	0xbd496ce3	-0.049176108
241	0xbe2d786d	-0.1694047
242	0xbd6cd773	-0.057822656
243	0xbd98dce4	-0.074640065
244	0xbdd52183	-0.104067825
245	0x3b7e0d35	0.0038765196
246	0x3dcaa5dc	0.098949164
247	0x3d377abc	0.044794783
248	0x3d4d80cd	0.050171662
249	0x3e83950a	0.25699645
250	0xbdd74904	-0.105119735
251	0xbdf09c43	-0.117485546
252	0x3e26060a	0.16213241
253	0xbe3518a8	-0.17685187
254	0xbdfcc0aa	-0.12341435
255	0xbe3d930e	-0.18513128

fc0.bias f4 [128]
0	0xbde59e3d	-0.11211822
1	0xbcd3c22c	-0.025849424
2	0x3c19f25e	0.009396164
3	0xbce376a9	-0.027766543
4	0x3cf0ebd9	0.029409336
5	0x3cc151b4	0.02359853
6	0xbe8df1b6	-0.27723473
7	0x3d1b2007	0.03787234
8	0x3c8fddd2	0.017561827
9	0xbcca8bef	-0.024724929
10	0xbdbc3fc1	-0.091918476
11	0xbd982ef1	-0.07430828
12	0xbeb6ae40	-0.35679817
13	0x3e1d73f0	0.15376258
14	0xbe4d7848	-0.20065415
15	0x3cb59fa6	0.022170853
16	0xbf0e354d	-0.5555008
17	0xbbc77b01	-0.0060876613
18	0xbdffde59	-0.12493581
19	0xbce20f76	-0.027595263
20	0xbdbd0199	-0.0922882
21	0xbd4b1267	-0.049578097
22	0xbdc64653	-0.09681382
23	0x3da349cf	0.07973062
24	0x3cdb2d9f	0.026755152
25	0xbc38bdd4	-0.011275727
26	0x3c127b1b	0.008940483
27	0x3c2d2691	0.010568277
28	0xbebfe37c	-0.37478244
29	0xbddf7fd8	-0.10913056
30	0x3d9ea57e	0.07746409
31	0x3cf3248e	0.029680517
32	0xbd777af2	-0.060419984
33	0xbe83a6f3	-0.2571331
34	0x3d520f9f	0.05128443
35	0xbe2f22fa	-0.17103186
36	0x3de6d9d7	0.112720184
37	0xbc864598	-0.016390607
38	0x3d25e3bb	0.040500384
39	0x38dca32f	0.00010520813
40	0x3d71ead6	0.059061848
41	0x3cc81da1	0.02442819
42	0x3ccf75ed	0.025324786
43	0x3c35ec85	0.011103754
44	0xbe75edeb	-0.2401654
45	0xbde21f1f	-0.11041092
46	0xbc807e0e	-0.015685108
47	0xbe92d0d4	-0.28674948
48	0x3dc5ed8c	0.09664449
49	0xbcbe5000	-0.023231506
50	0x3ba43f53	0.0050124316
51	0xbe991919	-0.2990196
52	0xbe78161f	-0.24227189
53	0xbe92c6fc	-0.28667438
54	0x3ac4efdb	0.0015025096
55	0x3d872942	0.06599666
56	0x3d519642	0.051168688
57	0x3c82ebc6	0.015981566
58	0xbd690f78	-0.056899518
59	0xbcfe0d17	-0.031012101
60	0xbe67d18f	-0.22638534
61	0xbd7fa30e	-0.06241136
62	0x3ce84b15	0.028356114
63	0xbe05c83a	-0.13064662
64	0xbd9b998e	-0.075976476
65	0xbe093084	-0.13397413
66	0xbdaf23fd	-0.08551786
67	0xbe1a3fc6	-0.1506339
68	0x3d4004d2	0.046879597
69	0xbe494c47	-0.19658004
70	0x3da2ce4e	0.07949506
71	0xbd93d97c	-0.07219216
72	0xbe719c1b	-0.23594706
73	0xbd7f9277	-0.06239554
74	0xbd5634de	-0.05229651
75	0xbebbe985	-0.367016
76	0xbd820a12	-0.06349577
77	0xbd697e9f	-0.05700552
78	0x3d181a82	0.037134655
79	0xbcd5260e	-0.026019122
80	0xbb1059e3	-0.0022026233
81	0x3d9aac11	0.0755235
82	0xbe7b2716	-0.24526629
83	0x3d08f6cb	0.033438485
84	0xbcd8cef7	-0.026465876
85	0xbd9d3530	-0.0767616
86	0xbdbe6bc6	-0.092979
87	0x3d08d3fa	0.03340528
88	0x3c6f156f	0.0145925125
89	0x3b3d81e6	0.0028916537
90	0xbd049a06	-0.03237345
91	0x3dcfb572	0.1014203
92	0x3cb0a74f	0.021564154
93	0xbea39973	-0.3195301
94	0x3d9315c1	0.071818836
95	0x39ac6dea	0.0003288829
96	0xbc9a7f38	-0.01885949
97	0xbda75392	-0.08170237
98	0x3ab19b19	0.0013550251
99	0xbdc8b8d8	-0.09800881
100	0xbe8d004b	-0.27539286
101	0xbd9e3a34	-0.07725945
102	0x3dbbd783	0.09171965
103	0x3b89d0b6	0.0042057885
104	0x3d133506	0.03593924
105	0x3d3d9fcb	0.04629497
106	0x3bbf770a	0.005843048
107	0xbd1ac2dc	-0.03778349
108	0x3d258bd8	0.04041657
109	0x3c97b694	0.018519677
110	0x3de798a1	0.113084085
111	0xbbeeedbc	-0.0072915237
112	0x3ad3de9a	0.0016164363
113	0xbe3ea945	-0.18619259
114	0xbdab7aae	-0.08373009
115	0x3dac824a	0.08423288
116	0x39c09830	0.00036734482
117	0x3cccae27	0.024985386
118	0x3b5e0140	0.0033875257
119	0xbeafa233	-0.34303436
120	0x3cd22ce3	0.02565617
121	0x3db51789	0.088423796
122	0x3c91d260	0.01780051
123	0x3c292847	0.010324544
124	0x3cf8cbc8	0.030370608
125	0x3c01789e	0.007902293
126	0x3ce8e174	0.028427817
127	0xbc855d39	-0.016279804

fc1.weight f4 [16, 128]
0	0xbc294d7b	-0.010333414
1	0x3d610034	0.054931834
2	0x3da0616c	0.07831082
3	0xbd72268d	-0.059118796
4	0x3dea47cc	0.114394754
5	0xbd387a1d	-0.04503833
6	0xbe5420fb	-0.20715706
7	0xbdedfc16	-0.11620347
8	0xbe3eb7ca	-0.18624797
9	0xbd8901c0	-0.06689787
10	0x3d8a73a9	0.06760342
11	0xbe1ed7e7	-0.15512048
12	0xbe475eb8	-0.19469726
13	0xbd0a57f3	-0.03377528
14	0x3d97f65b	0.074200355
15	0xbdf0a2d3	-0.11749806
16	0xbdc4704c	-0.095917314
17	0xbd91a602	-0.071117416
18	0x3dd50ff7	0.10403436
19	0x3e8e0167	0.27735445
20	0x3e842765	0.25811306
21	0xbde2bc94	-0.11071125
22	0x3eb982f3	0.3623272
23	0x3df604b9	0.120126195
24	0x3e2cc6ec	0.16872758
25	0xbc440ca0	-0.011965901
26	0x3c86bb78	0.016446814
27	0x3d221e29	0.039579544
28	0xbdaa8066	-0.08325271
29	0x3db677fd	0.08909605
30	0xbd844384	-0.0645819
31	0x3ca508d3	0.02014581
32	0x3e31cf04	0.17364126
33	0x3dd8d656	0.10587756
34	0xbe2ccd17	-0.1687511
35	0x3d3ab002	0.04557801
36	0xbc34b8d0	-0.011030391
37	0xbdc3fb23	-0.09569385
38	0xbdf0ecbc	-0.117639035
39	0xbd157e63	-0.036497485
40	0xbc1e9a75	-0.00968038
41	0x378568ce	1.5903639e-05
42	0x3d5b8304	0.053591743
43	0x3e9c76a4	0.30559266
44	0x3e14316c	0.14471978
45	0xbd816481	-0.06317998
46	0xbc1c6840	-0.0095463395
47	0xbc92e42d	-0.017931068
48	0xbdb4d306	-0.08829312
49	0xbebebd38	-0.37253737
50	0x3cdbb23c	0.026818387
51	0xbe359571	-0.17732789
52	0x3db23d1d	0.08703063
53	0xbd26f325	-0.040759224
54	0xbe0b0814	-0.135773
55	0x3d2f5a23	0.04281057
56	0x3e135a7b	0.14389984
57	0x3e1ec26d	0.15503855
58	0x3e1d648a	0.15370384
59	0x3d49d03d	0.049270857
60	0xbe3b8b51	-0.18314864
61	0x3bc09fa5	0.005878406
62	0x3debd6e0	0.115155935
63	0xbdf1f681	-0.11814595
64	0x3dd5d08b	0.10440167
65	0x3c707b6b	0.014677863
66	0xbdba2649	-0.090893336
67	0x3db76614	0.08955017
68	0xbd96a782	-0.07356168
69	0xbe0881e5	-0.13330801
70	0xbd804166	-0.06262474
71	0xbe32f7e7	-0.1747738
72	0xbd4f6398	-0.05063209
73	0x3cbb04d0	0.022829443
74	0xbde1593d	-0.11003349
75	0xbd4a17ff	-0.04933929
76	0xbd34b4b5	-0.04411765
77	0x3c8e59a4	0.017376728
78	0x3d447294	0.047960833
79	0x3d917ff6	0.07104485
80	0x3e202500	0.15639114
81	0x3b2d6d28	0.0026462767
82	0xbe0aefbf	-0.13568018
83	0xbd523608	-0.05132106
84	0xbdc33d1a	-0.095331386
85	0x3d8cb667	0.06870728
86	0x3d25c2ef	0.040469106
87	0xbcb78f15	-0.022407094
88	0xbc94f7ff	-0.01818466
89	0xba6e130b	-0.0009081817
90	0xbda71c57	-0.08159702
91	0x3e11a1af	0.14221834
92	0x3e26469b	0.16237871
93	0xbca62ac4	-0.020284064
94	0xbcd4bfcb	-0.02597036
95	0x3de6b708	0.11265379
96	0x3e06a779	0.13149823
97	0x3d2ce7ce	0.042213254
98	0x3d65f8e4	0.056145564
99	0x3d570435	0.052494247
100	0xbdea4811	-0.11439527
101	0x3d31f27e	0.04344415
102	0xbde2dbd5	-0.11077086
103	0x3e12e85a	0.14346448
104	0xbe166bcb	-0.14689557
105	0x3db54fbb	0.08853098
106	0x3d8bb465	0.06821517
107	0x3d11ad31	0.03556556
108	0x3dbe50d1	0.09292758
109	0x3d8d212c	0.06891093
110	0xbc3c2614	-0.011483688
111	0xbd00500e	-0.031326346
112	0x3ea0533f	0.31313512
113	0xbd2738b3	-0.040825557
114	0xbce44e7e	-0.02786946
115	0xbc48ba95	-0.012251516
116	0x3d0b6c3b	0.034038763
117	0x3cc38ed2	0.023871813
118	0x3e0298f2	0.12753657
119	0xbdd8cab0	-0.105855346
120	0xbd5a6590	-0.053319514
121	0xbd0e615b	-0.034760814
122	0x3daa1ab9	0.08305878
123	0x3d8c33ba	0.068458036
124	0x3f2d106a	0.6760317
125	0x3ca557d3	0.02018348
126	0x3b3a3735	0.0028414254
127	0x3e69f81d	0.22848554
128	0xbea2295c	-0.3167218
129	0x3e9dd887	0.3082926
130	0x3e0040b7	0.12524687
131	0x3c0223f8	0.007943146
132	0x3dcfff9d	0.10156176
133	0x3e3f7b5a	0.18699399
134	0x3c5591ae	0.013035221
135	0xbd0796e6	-0.033102892
136	0xbdec2d64	-0.11532095
137	0xbcf6008a	-0.030029554
138	0x3cf2fcb1	0.029661508
139	0xbe597a0f	-0.21237968
140	0xbe32b743	-0.17452721
141	0xbdaa95ca	-0.08329351
142	0x3ccb61c4	0.024826892
143	0xbdc1f571	-0.09470642
144	0xbf3da057	-0.74072784
145	0xbd8f01ee	-0.0698279
146	0xbdf075fc	-0.11741254
147	0x3eae4617	0.3403785
148	0x3dc2347b	0.09482666
149	0xbdb929e7	-0.09041195
150	0xbe2c163c	-0.16805357
151	0x3dc6f4d1	0.09714664
152	0x3e8c5c4e	0.27414173
153	0x3ca9da84	0.02073408
154	0x3e336ab5	0.17521174
155	0x3e00b8aa	0.12570444
156	0xbdeec81d	-0.11659262
157	0x3e6882ae	0.227061
158	0x3e8c49ec	0.27400148
159	0xbba454a4	-0.0050149728
160	0x3d97f9b9	0.07420678
161	0x3e24745d	0.16060014
162	0xbeb3159e	-0.3497743
163	0x3e055d25	0.13023813
164	0xbd84811b	-0.064699374
165	0x3cd724d9	0.026262688
166	0x3dd7d368	0.105383694
167	0x3d94991c	0.07255766
168	0x3e4f7fd3	0.20263605
169	0x3c40b593	0.011762041
170	0x3e2b6d0b	0.16740815
171	0x3dc9b6c1	0.09849311
172	0x3d6b6e6f	0.057478365
173	0x3ccb519a	0.024819184
174	0xbd44d981	-0.04805899
175	0x3ba93550	0.005163826
176	0xbe237f13	-0.15966444
177	0x3d2cefe2	0.042220958
178	0xbcf29bf3	-0.029615378
179	0xbde659ed	-0.11247621
180	0x3d0761a3	0.033052098
181	0xbd4c0c32	-0.049816318
182	0x3c76ec75	0.015071024
183	0xbda45039	-0.08023114
184	0x3e9b56b9	0.30339602
185	0x3f065fef	0.52490133
186	0x3e5605d6	0.20900664
187	0x3d2ab75a	0.041678764
188	0xbdf03303	-0.1172848
189	0x3d2b55e1	0.041829947
190	0x3e02fc0b	0.1279146
191	0xbd9b2742	-0.07575847
192	0x3e4cc7b9	0.19998063
193	0x3b0b4f21	0.0021256881
194	0xbd2073a5	-0.039172787
195	0x3cb95eaf	0.022628156
196	0x3dc81d1c	0.09771177
197	0xbd9d12ef	-0.07669627
198	0xbdc7e210	-0.09759915
199	0xbdfffe91	-0.124997266
200	0xbe0ae567	-0.13564073
201	0x3948402b	0.00019097391
202	0xbe178e9f	-0.148005
203	0xbe84310e	-0.25818676
204	0x3dee458b	0.11634358
205	0xbbc22162	-0.0059243897
206	0x3bd7cf6e	0.006586007
207	0x3d27a091	0.040924612
208	0x3e09a658	0.13442361
209	0xbd9f6d32	-0.07784499
210	0xbe712269	-0.23548283
211	0x3dcd4f68	0.10024911
212	0x3ae5473f	0.0017492546
213	0x3d416a30	0.04722041
214	0xbdc5994e	-0.09648381
215	0x3d54cbdf	0.05195224
216	0x3d4177c6	0.047233365
217	0xbd20d193	-0.039262366
218	0xbd1360d7	-0.035981026
219	0x3c321f3d	0.010871706
220	0x3d8d1c45	0.068901576
221	0xbdf14bca	-0.11782034
222	0x3d5dc289	0.0541406
223	0xbdcb8bd1	-0.09938777
224	0x3dddcd42	0.108301654
225	0xbb926d1c	-0.0044685733
226	0x3e4a339f	0.19746254
227	0x3d9c0725	0.0761855
228	0xbe4123aa	-0.18861261
229	0xbe41e314	-0.1893428
230	0xbd43861e	-0.047735326
231	0xbdc304e8	-0.0952242
232	0xbe2c0b37	-0.16801153
233	0x3d860937	0.06544726
234	0x3e5229b3	0.2052372
235	0x3e1e969a	0.15487137
236	0xbac62140	-0.001511611
237	0x3d915457	0.07096165
238	0xbd08238e	-0.033237033
239	0xbd55df83	-0.05221511
240	0xbe1bad84	-0.1520291
241	0x3ca0b396	0.019616883
242	0x3ce19814	0.027538337
243	0x3beb0a86	0.0071728854
244	0x3e2546d0	0.16140294
245	0x3df399a6	0.118945405
246	0x3e2a117b	0.16608231
247	0xbe2cdbda	-0.16880742
248	0xbe14eca0	-0.1454339
249	0xbdcf3e52	-0.101193085
250	0x3e253b38	0.16135871
251	0x3e20cddf	0.15703534
252	0xbd992fbf	-0.0747981
253	0x3e6128ef	0.21988271
254	0x3c4f4307	0.012650258
255	0x3df57b59	0.11986417
